checkpoints/ddg_predictor.ckpt (torch, 664952 bytes, 7 tensors)

weight f4 [256, 128]
000000 41 2c 9e 3d db 60 34 3d 92 8c 20 bd 3e 17 6c 3a
       0.077232845 0.04403768 -0.03919656 0.0009006149
000010 e3 74 4d 3d 23 27 86 bc 5d a3 1c bd 9b 92 3d bd
       0.0501603 -0.016376084 -0.038241733 -0.046282392
000020 28 3c 9a bc c5 3b 9c 3d 2a 69 ad 3d 30 34 9f bd
       -0.018827513 0.07628588 0.08467324 -0.07773626
000030 f3 62 a4 bc 90 0f a0 bd e9 a4 a2 3d cf 6c 86 bc
       -0.020066714 -0.07815468 0.0794161 -0.016409306
000040 c1 d9 ff bc 15 19 93 3c 67 9a 6e 3d c3 6c a4 bc
       -0.031231763 0.017956296 0.05825272 -0.020071393
000050 1f a3 63 3d 1e d3 61 3d 45 91 7c bd f5 56 0e 3d
       0.055575486 0.055132978 -0.061661977 0.034750897
000060 74 e5 b3 3d 88 72 a5 3d c3 5e 9e bb 2f 3c 9a 3d
       0.08783999 0.08078486 -0.004833074 0.0753101
000070 f2 22 0b bd 20 18 51 bd d6 29 96 bc d3 67 90 bd
       -0.033968873 -0.051048398 -0.018330496 -0.07051053
000080 be b0 9e bc 1c 51 43 bd df 25 87 bc b1 2c 48 3c
       -0.019371387 -0.047684774 -0.01649755 0.0122176865
000090 79 9e 7e bd 2d b0 d7 bc c4 54 13 bc 25 69 bc 3c
       -0.06216285 -0.026329124 -0.008992378 0.022999356
0000a0 27 57 eb bc 33 e7 84 3d 12 97 a2 3d 4a 1b 63 bc
       -0.02872808 0.0648941 0.079389706 -0.013861487
0000b0 ca 30 c2 3c 2e 98 68 3d 8f 61 07 3c 78 dc 8d 3d
       0.023704905 0.056785755 0.008263006 0.06926817
0000c0 05 bb 80 3d 05 9e 28 bd 14 00 a2 3c 48 8d c3 3c
       0.06285671 -0.041166324 0.019775428 0.02387108
0000d0 0f b3 66 bc 57 22 82 bc 6d 83 43 bd 49 fa 04 bc
       -0.014080777 -0.015885515 -0.04773276 -0.008116313
0000e0 82 6f a8 bd 74 b9 ae 3a 42 28 87 3d 50 6c 04 3d
       -0.082243934 0.0013330416 0.065994754 0.032329857
0000f0 41 5c 57 bd 64 8f 26 bd 6f b0 59 bd 23 c6 52 bd
       -0.052578215 -0.04066409 -0.053146776 -0.05145849
000100 a3 22 6e bc af 0e b2 bd f6 f7 ab bc 30 1d 16 3d
       -0.014534625 -0.08694207 -0.02099226 0.03664893
000110 ce e5 21 3d 91 26 27 3a 66 2e dc bb 43 68 75 3d
       0.0395258 0.0006376291 -0.0067193983 0.059913885
000120 d0 5e 60 3c 52 de 74 3d 2c b4 e9 bc 9b 72 e1 bc
       0.01369448 0.059782334 -0.028528295 -0.027520468
000130 5f ca 4f 3d 50 73 b3 bc 28 f2 0c bc 28 a7 99 bc
       0.050730105 -0.021905571 -0.008602656 -0.018756464
000140 ff 40 7d bd 72 07 ac 3d 7e b4 43 3d 19 37 cc bc
       -0.061829563 0.083998576 0.047779553 -0.024928616
000150 56 34 46 bd 4f 5e 99 3d 05 4e 75 3d 9f 68 b1 3d
       -0.048389755 0.07488691 0.05988886 0.08662533
000160 51 76 07 bd ba 72 9d 3d 6f 47 8a 3d e8 3e 14 3c
       -0.03307182 0.07687898 0.06751906 0.009048201
000170 a6 36 ad 3d 69 de a9 3d 9e c7 98 3d f9 28 90 3d
       0.08457689 0.082943745 0.07459949 0.07039065
000180 ea 4f b3 3c f5 bb a0 b9 12 85 86 bc be ab b4 3d
       0.021888692 -0.00030657617 -0.016420875 0.0882182
000190 08 12 1c 3d f3 f0 ef 3c 10 28 f8 bb c4 40 98 bc
       0.038103133 0.029289698 -0.007573135 -0.01858557
0001a0 13 74 ab 3d 2b d1 ad 3d 2a 07 ef bc f9 ae 87 3d
       0.08371749 0.08487161 -0.02917822 0.0662517
0001b0 82 81 31 3b 9d 39 97 3d 5d 0f b2 3d 66 7c 6d 3d
       0.002708525 0.07384036 0.086943366 0.057979964
0001c0 a9 21 94 bd 0d 3e b1 bd e3 25 aa bc 92 4d 8a 3d
       -0.07232983 -0.08654413 -0.020770019 0.067530766
0001d0 11 e5 81 bd f4 27 97 bc ad 72 b2 3c 7a ee 23 bc
       -0.06342519 -0.018451668 0.021783197 -0.010005588
0001e0 b2 26 d6 3c fe ba cd 3c db b0 65 3d 22 ae ea bc
       0.026141498 0.025113579 0.056076866 -0.028647486
0001f0 c5 51 42 3d aa 28 12 3d ea 58 e8 3c 58 3a 23 bc
       0.047441263 0.03568331 0.02836271 -0.009962641
000200 6b ff 31 3d 62 a3 b9 3d d7 7c 99 bd 3d 34 6a bd
       0.043456476 0.09064366 -0.074945144 -0.057178725
000210 aa 06 8f bd 4c 53 84 bd 13 ae 64 3d d8 0c 8f 3d
       -0.06983693 -0.064612 0.055830073 0.069848716
000220 a1 62 32 3d 49 01 f4 bb 1d 30 ae 3d 39 66 8f bb
       0.04355109 -0.0074464423 0.08505271 -0.0043761996
000230 bd b4 71 bd 5d cf 94 3d 5c 4d 53 3d 33 45 dd 3c
       -0.059010256 0.07266114 0.051587448 0.027010536
000240 61 ea b7 3d fe d5 f4 3c 36 97 64 3d 1f 0d 14 3d
       0.08980251 0.029887196 0.05580827 0.036145326
000250 6e 1b 41 3d d2 bb 0d 3d 96 42 a8 bd a4 d5 8e 3d
       0.0471453 0.034602948 -0.08215825 0.069743425
000260 64 d2 88 bb 64 09 43 bc e1 50 96 3d 78 4d a7 bd
       -0.004175471 -0.011904094 0.07339645 -0.08169073
000270 83 66 a9 bd 3d ab 81 bd 7d 77 ac 3d 25 cf dd bb
       -0.08271506 -0.06331489 0.08421228 -0.0067690783
000280 4d 81 66 3d de 64 0d 3c 6c 51 e7 3c a5 f9 12 3c
       0.056275655 0.008630006 0.028237067 0.008970653
000290 46 f1 48 3d d6 5d 40 bd 9e 98 af bc dc 4c b9 3d
       0.04905822 -0.04696449 -0.021435078 0.09047863
0002a0 14 3c 16 3d 59 72 80 bd 6b 60 b5 bc 74 9c 15 bb
       0.03667839 -0.0627181 -0.022140702 -0.002282885
0002b0 67 76 ad bc 25 ac 95 bd 7c d7 a1 bc 8d a2 1c bd
       -0.021174623 -0.073082246 -0.019756071 -0.038240958
0002c0 26 25 4b bd 48 d6 80 bd d6 94 25 3d 8a a0 1a 3b
       -0.049595974 -0.06290871 0.040425144 0.0023594224
0002d0 af 68 df 3c 94 bc a3 3d 09 50 a1 3d 8d b7 bd bc
       0.027271597 0.07994953 0.078765936 -0.023158813
0002e0 3a f7 b2 3d 4c 0b 35 3d bd 68 6d bc 38 f6 ea 3c
       0.08738561 0.044200227 -0.014490304 0.02868186
0002f0 4d 91 65 bd 24 c1 d4 3c 2c be bb 3c ed b7 66 bc
       -0.056046773 0.025971003 0.02291783 -0.014081937
000300 77 d8 f6 3c fb 74 86 bd 5a f3 a4 3d 6d 1f 7c bd
       0.030132515 -0.06565281 0.08054228 -0.061553407
000310 3e 51 90 3d d3 ec ae bb 7a 69 4e 3c e6 ce 11 3d
       0.07046746 -0.0053382902 0.01259839 0.035597704
000320 13 0c 40 3d 07 a2 25 bd 00 28 7b 3d a6 5f 2f bd
       0.046886515 -0.040437724 0.061317444 -0.042815827
000330 ea 36 ab 3c 51 f0 65 bd ed a7 a7 3d 1e 32 98 bd
       0.020900209 -0.056137387 0.08186326 -0.07431434
000340 ce 4f 36 3d 0a 05 a4 3c df aa c4 3b 91 a6 36 3d
       0.0445097 0.020021934 0.0060018147 0.044592444
000350 d4 38 83 bd 30 54 94 bd f7 eb c2 bc 2a 21 a5 bd
       -0.064073235 -0.0724262 -0.023794157 -0.08062966
000360 5a f8 79 bd a7 90 3c 3d 75 c1 83 bd 1a fb a8 3d
       -0.061027862 0.04603639 -0.064333834 0.08251019
000370 e4 56 9b 3d 2e 10 b3 3d a3 5d 88 bc 51 4d 7d 3d
       0.075849324 0.087433204 -0.016646212 0.061841313
000380 e8 c6 7c 3c ec e4 12 bd ea d3 7d 3d e4 28 ba 3c
       0.015428282 -0.03586285 0.061969675 0.022724576
000390 be ba 81 3d a1 d1 28 3d 19 02 7e 3d dd df bf 3c
       0.06334446 0.041215543 0.06201372 0.023422176
0003a0 90 d5 bb bc 76 67 b1 3d 45 b3 7b 3d 11 75 e9 bc
       -0.022928983 0.08662312 0.06145026 -0.028498204
0003b0 8c e3 f2 bc 83 9d 79 bd 48 85 a3 3c b9 ad ae 3c
       -0.029649518 -0.06094123 0.019961014 0.021323072
0003c0 ec 0f a5 3d 07 54 64 bd 15 17 fd 3a ff d5 5a bd
       0.080596775 -0.055744197 0.0019309247 -0.05342674
0003d0 c6 da dd 3c e2 dc 15 bd 2e 1a 05 bd 4a c2 38 3d
       0.027081858 -0.036587603 -0.03249567 0.045107163
0003e0 26 26 a5 3d 8a df 47 bd fa 0b ff 3c 48 8b bd 3d
       0.08063917 -0.048797168 0.03113364 0.092550814
0003f0 09 16 92 bd a0 57 ff bc 88 8d a1 3c 86 76 5b 3b
       -0.07133109 -0.031169713 0.019720808 0.0033487394

bias f4 [256]
000000 ee 2c 47 bd 38 14 a7 3d f8 59 bb 3c 7d e5 7b 3d
       -0.048626833 0.08158153 0.022870049 0.061498154
000010 fd ae 2c 3b c4 b2 fa 3c 09 1c 43 bd e8 03 76 bd
       0.0026349418 0.03060282 -0.04763416 -0.06006232
000020 69 4a 9b 3d 6f 65 c3 bc e7 95 cf bd 56 37 aa 3c
       0.07582552 -0.023852078 -0.101360135 0.02077834
000030 c8 32 a4 3c 1b 00 70 3d 70 85 23 3d e4 53 d1 3c
       0.020043746 0.05859385 0.039922178 0.025552697
000040 51 e0 8c 3d c9 c5 30 3d e9 15 40 3d 1e 9b 8e 3d
       0.068787225 0.043157373 0.046895895 0.0696318
000050 e2 f6 50 bd 48 24 60 3d d6 83 17 3d 4c 05 84 3d
       -0.051016696 0.0547221 0.036990963 0.06446323
000060 92 be a7 bc c6 96 18 3c 23 af 3c bd 6a 7d 91 3d
       -0.020476613 0.009313291 -0.04606546 0.07103999
000070 df ab a8 3d 2f 18 9f 3d d5 58 3f bd 11 34 8d 3d
       0.08235907 0.077682845 -0.046715576 0.068946965
000080 d1 21 b2 bd 79 d9 58 3d 5a 74 7a 3d 62 10 14 3d
       -0.08697856 0.052941773 0.061146118 0.036148436
000090 11 c5 95 bc ec 95 13 ba 9a 16 64 3c c7 72 73 3d
       -0.018282445 -0.0005629945 0.013921404 0.059435632
0000a0 12 5b a6 bd 48 8e 1c bb f6 e7 93 bd 35 9f 46 bc
       -0.08122839 -0.0023888517 -0.072219774 -0.012122919
0000b0 38 41 a3 bd 42 90 16 bd d7 ff c4 bd cb 1d 6f 3d
       -0.07971424 -0.03675867 -0.0961911 0.058378022
0000c0 96 a4 a6 3d 98 f1 63 3d 96 b0 47 3d 32 9f c9 3d
       0.08136861 0.055650324 0.04875239 0.09844817
0000d0 27 39 cf 3b 57 ca 1b bc 25 ef f9 bc 8d 99 bf 3c
       0.0063239518 -0.009508691 -0.03050954 0.023388648
0000e0 99 b0 80 3d 35 b2 c3 3c 12 a9 89 3d f0 28 2b 3d
       0.06283683 0.023888687 0.06721701 0.041787088
0000f0 59 5e cb bb 69 7a ad bd 92 13 b0 3d 3f b0 11 bc
       -0.0062063155 -0.084706135 0.08597483 -0.008892118
000100 de b0 49 3d 42 d1 6c 3d ff 5a ca 3b cf 0a 12 3d
       0.04924094 0.05781675 0.0061753984 0.03565484
000110 8d c6 b0 3d 02 c4 49 bd 5e 15 89 3d 09 ba 80 bd
       0.086316206 -0.049259193 0.066935286 -0.062854834
000120 53 8e 07 bd 25 86 98 3d 0e 91 a7 3c 5f 9c 54 3d
       -0.033094715 0.07447461 0.02045491 0.05190694
000130 da 33 0f 3c e2 b0 a0 bd c1 6e ba 3b 5c c1 76 bd
       0.00874039 -0.07846238 0.0056894724 -0.060242996
000140 c9 58 c2 3c 77 ea 49 3c 16 da e1 bc 9e a6 99 bd
       0.023723977 0.012323967 -0.027569812 -0.07502483
000150 29 53 c5 bc a5 b0 8b 3c 17 f9 a0 bd 06 aa 54 3d
       -0.024087505 0.017052004 -0.0786001 0.05191996
000160 4a 5c a6 3c ee b2 1a bb d6 d5 5d 3c cb e9 98 3c
       0.020307679 -0.0023605186 0.013539752 0.018666169
000170 19 30 01 bc 53 31 a7 bd b6 7d a8 3c 7b 8f 98 bb
       -0.0078850025 -0.08163705 0.020567756 -0.004655776
000180 26 32 61 3d c1 60 98 3d f4 71 13 3d 7d 6b 9c 3d
       0.054979466 0.07440329 0.035997346 0.07637689
000190 fa a0 78 3c bc c3 9c 3d 8c 1d 94 bd 4e 4f cb 3a
       0.015175099 0.07654521 -0.07232198 0.0015511306
0001a0 14 3e b0 bc 52 1e fc 3c 13 14 2f bd 64 44 2a 3d
       -0.021513976 0.030776177 -0.042743754 0.04156913
0001b0 3c aa 35 bd 5b 8d 9d 3d 42 5b 94 bd 68 66 40 3d
       -0.0443518 0.07692977 -0.072439685 0.046972662
0001c0 11 a3 81 3d 7d 9a 88 bd 65 f6 bc 3c f9 9f 6e 3c
       0.063299306 -0.06670091 0.023066709 0.014564508
0001d0 94 7a 0c bd 62 4f 7f bd dd e2 59 3d 15 71 d0 bb
       -0.034296587 -0.062331565 0.05319487 -0.0063611367
0001e0 96 d8 65 bd c6 65 a3 3d ae 9f bc bd 9b 57 ac bd
       -0.056114756 0.07978396 -0.09210144 -0.08415147
0001f0 cc 06 64 3d ad e9 a2 bc a7 c9 67 bd 34 20 8b bc
       0.055670545 -0.019886816 -0.056588795 -0.01698313
000200 57 5b 22 3c 33 59 cb 39 41 b5 63 bd 53 8a 9d bd
       0.009909472 0.00038785636 -0.05559278 -0.07692399
000210 67 f8 ab 3d 09 e4 8f bd b9 23 fa bc 5f 7b da 3c
       0.08396988 -0.07025916 -0.030534612 0.026670156
000220 cf e9 2c 3d 24 92 00 3d 44 ed 29 3d fb c5 ba bd
       0.042215165 0.03138937 0.04148604 -0.09119793
000230 1e 89 8b 3c 7b 47 74 3d 3f bc 82 3c 96 46 8c 3d
       0.017033156 0.05963848 0.015958903 0.06849401
000240 25 2d 3c bd b2 2c e9 3b 17 e0 79 3d c3 4c 41 bd
       -0.04594149 0.007115924 0.061004724 -0.047192346
000250 65 b9 8a bd 02 7f d3 3c ea 59 28 3d f9 8f a2 3c
       -0.067736425 0.025817398 0.041101374 0.019844042
000260 fd c5 e8 bc 1b 48 87 3d 82 c8 e4 3c c8 e7 79 bc
       -0.02841472 0.0660555 0.02792764 -0.015253015
000270 1d e0 27 3d 43 78 3b 3d 7a 24 4d bd 4e 36 30 bc
       0.040985215 0.045768987 -0.050083615 -0.010755135
000280 04 3e b1 bd e4 06 60 bd c8 f9 04 3d 35 d0 02 3d
       -0.08654407 -0.05469407 0.032464772 0.031936843
000290 19 3f af bb 29 89 bc bc 69 17 89 bd 91 d3 0c 3d
       -0.005348098 -0.023014622 -0.06693918 0.034381453
0002a0 5b d8 32 3d c3 a4 02 3e 5b 51 f0 3c 0f bd 98 3d
       0.043663364 0.12758164 0.029335668 0.07457935
0002b0 92 e0 2b 3d 90 90 85 3d 46 a0 5e bc 17 3e f0 bc
       0.041962214 0.06521714 -0.013588017 -0.029326482
0002c0 a9 c9 54 3c 9f 6e 0e 3c 7e 02 fd 3c 1e 04 b0 bd
       0.012987533 0.008693366 0.030884977 -0.08594535
0002d0 e9 7f 64 ba 0b 3c 8e 3d 97 4c 34 bd 20 05 58 3c
       -0.000871657 0.06945046 -0.044018354 0.013184816
0002e0 cb 16 fc ba 4f 16 64 bd ad 19 5b bd ae fd 68 3c
       -0.0019232867 -0.055685338 -0.053491283 0.014220638
0002f0 c8 ac a3 3c cc 15 a7 3d c6 a7 92 bd 31 8f 03 3d
       0.01997985 0.08158454 -0.071609065 0.03211898
000300 dd 5a d2 3c 76 26 a8 3d 54 da b2 bd 22 d0 2c bd
       0.025678093 0.08210461 -0.08733049 -0.04219068
000310 6d d5 9e bd fb 5c 2d 3d 41 fa af bc cc c5 b4 3c
       -0.077555515 0.042325 -0.021481635 0.022066973
000320 fe bb 1d bc 66 78 47 3c e4 80 9b bd 77 a7 ed b9
       -0.00962734 0.012174701 -0.07592943 -0.00045328934
000330 05 77 da 3c 13 c7 95 bd eb 47 af 3c e9 2d a2 bd
       0.026668081 -0.07313361 0.021396598 -0.07918913
000340 4f 19 af 3d 0d c0 49 3b d0 4e 22 3d 76 cc 70 3d
       0.08549749 0.0030784637 0.039625943 0.05878874
000350 0a e1 88 bd 67 91 85 bd 1d 1b 76 bd 83 ea f8 bc
       -0.06683548 -0.06521874 -0.06008445 -0.030385261
000360 a8 84 d2 bc 0d c6 62 bd 5e 63 81 bd 39 5e 20 3d
       -0.025698021 -0.055364657 -0.06317781 0.039152358
000370 83 de b6 bc 10 dc 77 bd 99 12 46 3d b0 5c c5 bc
       -0.022322899 -0.060512602 0.04835758 -0.024092048
000380 13 93 b2 3c ad 90 93 bd b7 9d 77 bc ff 54 8b 3d
       0.021798646 -0.07205329 -0.015113286 0.06803321
000390 d4 ac bc bd ac 96 fa 3c d8 78 ac 3b e6 d3 46 bd
       -0.09212652 0.030589424 0.005263429 -0.048541926
0003a0 e3 b1 a8 bc 25 a7 94 3d 47 f9 ad bd b9 5a 15 bc
       -0.020592635 0.07258443 -0.084948115 -0.009115868
0003b0 62 69 4e 3c 0d de e2 bc 3b 59 6f bd 5b 25 80 bc
       0.012598367 -0.027693773 -0.058434706 -0.015642812
0003c0 1d 27 a1 bd 65 e3 b9 bc 6a a3 5f 3d c6 84 1b 3d
       -0.078687884 -0.022691438 0.054599203 0.03796842
0003d0 4f bd 13 3c f2 9b 7d ba ac 7b 1e bd 25 37 42 3d
       0.009017303 -0.0009674422 -0.03869216 0.04741587
0003e0 4a ce 15 bd 90 85 8f 3d e9 e5 83 3d fd 3b a4 bd
       -0.036573686 0.07007897 0.06440336 -0.08019254
0003f0 07 af ec bc 62 d7 bd 3c cb fc a5 bd 42 cb dd ba
       -0.028892053 0.023173992 -0.08104857 -0.0016921537

weight f4 [256, 256]
000000 e0 b5 ba 3c bd 82 16 3d 94 37 7b 3d 6d c3 47 3d
       0.022791803 0.036745775 0.0613323 0.048770357
000010 73 ad 02 3d 08 28 16 3d 98 20 05 3c 14 8c d2 bc
       0.031903695 0.03665927 0.008125447 -0.02570156
000020 f4 a3 aa 3c a5 60 a8 3d 76 e3 a0 3b bf 71 f7 bc
       0.020830132 0.082215585 0.004909928 -0.030205606
000030 43 7e 6f bc ce 4c 6d 3d 78 0f 5b 3c 01 1d 21 3c
       -0.0146175055 0.057934575 0.013370387 0.009833575
000040 4c 19 e3 3c c7 1a 76 bb d1 80 bc 3c 28 b5 3d bd
       0.027722023 -0.0037552582 0.023010643 -0.046315342
000050 88 fd c9 3c f1 44 4e bd ee 2d ce bd 4c ba 9f bc
       0.024657026 -0.050358716 -0.10067354 -0.019498013
000060 8e 60 67 3d 77 f6 3d 3c 5c 23 9c bc 10 18 15 3d
       0.056488566 0.011594406 -0.01905983 0.0363999
000070 e6 a7 38 bd c5 b1 ee 3c 50 ba 4f 3c 48 51 fa bc
       -0.045081995 0.029137501 0.012678698 -0.030556336
000080 00 97 92 3a d8 4e 43 bd 81 66 0f bd 24 dd 1c bd
       0.0011183918 -0.047682613 -0.035009865 -0.038296834
000090 b2 c8 0d 3d 45 74 91 bc 6a 6a 26 3d 4c f0 32 bd
       0.034615226 -0.017755637 0.040628828 -0.043686196
0000a0 bc 3e 6d bd 9c 2b ea 3c ae 84 22 3d b8 57 6c bd
       -0.057921156 0.028585248 0.039677314 -0.057700843
0000b0 16 4f 58 bd e5 db 84 3d 29 fd ab 3c 84 10 37 3d
       -0.052809797 0.06487254 0.02099474 0.044693485
0000c0 3c b8 9b bb 74 93 ee 3c 18 e8 5b 3d 60 26 8a 3d
       -0.004752187 0.029123046 0.05368814 0.06745601
0000d0 21 d1 86 3d 23 26 4a 3c 27 6d dc bb 66 1c 56 3c
       0.06582857 0.012338194 -0.006726879 0.013068294
0000e0 14 17 30 bd 74 a9 39 bd ff 70 57 3d e9 4f 3a 3d
       -0.04299076 -0.04532762 0.052597996 0.045486365
0000f0 ac b3 50 3d b0 1b e2 3c d0 13 c1 bc 6e c6 30 3d
       0.0509526 0.027601093 -0.023569018 0.043157987
000100 01 7a 12 3d e0 ea 2b 3c 68 34 15 bc 4c 8b 28 3d
       0.035760883 0.01049301 -0.009106733 0.04114847
000110 02 db 08 3d c0 a8 2f bd 84 4f 0d bd 69 0d 9c bc
       0.033411987 -0.042885542 -0.03449966 -0.019049363
000120 96 99 85 3c 4b cf 08 3d c8 5c 32 3d 6e 6a 6f 3d
       0.016308587 0.033400815 0.043545514 0.05845111
000130 ef b9 14 3d 10 a2 10 bd ab a2 5e 3c 02 b6 c2 3b
       0.036310133 -0.035310805 0.013588588 0.005942107
000140 c0 b6 a3 3a 47 84 70 3c 22 2d 11 3d ba aa 08 bd
       0.0012490377 0.014679975 0.035443433 -0.033365943
000150 b5 65 ab bc 5e a9 2b 3d 7d d3 50 3d 61 08 c8 bb
       -0.020922521 0.041909568 0.05098294 -0.0061045145
000160 28 e1 fb 3a 10 fd 59 bc 4e 3a 0a 3d 58 36 77 3d
       0.0019216882 -0.013304964 0.03374701 0.06035456
000170 55 a1 93 3c c1 d7 61 3c ac 6f 9d 3c d5 da 4b 3d
       0.018021265 0.01378435 0.019218288 0.04976924
000180 ea ee 53 bd 80 56 3b 3a 23 7a 07 3d 59 8e 84 3d
       -0.051741518 0.00071463734 0.033075463 0.06472463
000190 94 26 d9 bc d7 13 e1 bc c6 cc 65 bd 4c da 1d bd
       -0.026507653 -0.02747528 -0.05610349 -0.038538262
0001a0 c0 26 a2 3c ac 62 60 bd 3c 34 b5 3c 9c a3 83 bc
       0.019793868 -0.0547816 0.022119634 -0.016069226
0001b0 98 20 0b 3c f2 83 1a bd 4c e1 f3 bc fd 1d 21 bd
       0.008491658 -0.03772349 -0.029770516 -0.03933524
0001c0 57 3f 23 3a 13 b4 52 bd 82 13 6e 3d fb 39 67 3c
       0.0006227395 -0.051441263 0.058124073 0.014112945
0001d0 d6 3d 08 3d e8 99 d9 bc 21 65 12 3d 6e d5 64 3d
       0.033262096 -0.026562646 0.035740975 0.055867605
0001e0 74 79 0f bd b4 ed ff bc 2d 26 99 3b 64 48 16 3d
       -0.035027936 -0.031241275 0.0046737404 0.03669013
0001f0 84 c2 0c bc 54 5a 65 bb 1c 45 f3 ba b3 db 51 bd
       -0.008591298 -0.0034996467 -0.0018560025 -0.051234912
000200 70 65 cc 3c 98 ce 6c 3c 18 11 58 bc bf bb 36 bd
       0.024950713 0.014453553 -0.013187669 -0.044612642
000210 f2 ea 09 3d c0 05 45 3c 00 d5 65 bb 90 37 52 3c
       0.033671327 0.012025297 -0.0035069585 0.01283063
000220 05 65 19 3d d4 91 b6 3a 38 8d 28 bc e6 df 2d 3d
       0.037449855 0.0013928958 -0.010287575 0.042449854
000230 4c 7f 09 bd 80 61 36 3b a3 f2 59 bd c3 9a 5e 3d
       -0.033568665 0.002782911 -0.053209912 0.05434681
000240 b1 17 fa 3b 0f ab ac bc 4a 1f 35 3d 84 98 f7 bc
       0.0076322188 -0.02107766 0.044219293 -0.030224092
000250 5f a3 18 bd 09 1f 1a 3c d8 11 80 3c 88 6f 84 3c
       -0.037265178 0.009406813 0.015633509 0.016166463
000260 1c fe 21 bd 9f 8e b3 3c c9 6b dc bc 7d 36 01 3d
       -0.03954898 0.021918593 -0.026906865 0.031546105
000270 7e 41 e0 3b a4 0f fb 3c fe f9 61 bd b3 68 68 bb
       0.006843745 0.030647106 -0.05517005 -0.0035462796
000280 ff 1a c4 bc 42 0a 5f bd 4a b6 2d bb 04 e1 03 bd
       -0.023938654 -0.054453142 -0.0026506358 -0.032197013
000290 ec c0 98 3c 0f 95 36 bd d1 bc 85 3a e4 36 49 bd
       0.01864668 -0.044575747 0.0010203366 -0.049124613
0002a0 48 79 84 bc a5 9a c4 3d 82 80 de bc 21 6c b7 ba
       -0.016171113 0.095998086 -0.027160887 -0.0013994017
0002b0 b0 e6 1a 3c 7c 0f 72 3d fc 26 60 bd e4 4e 03 3d
       0.009454414 0.0590968 -0.05472468 0.032057658
0002c0 83 3f fb 3c d1 4c 6a 3c 5c 87 83 3c fa 13 55 3b
       0.030669933 0.014300541 0.016055755 0.0032513128
0002d0 9d 05 14 bd dd 7f 94 bd 4d 48 01 bd 16 c5 6d bb
       -0.036138166 -0.072509505 -0.031563092 -0.0036280802
0002e0 b6 fb a7 bc c2 0a 1c 3d b6 90 76 bd 3f d6 04 bd
       -0.020505767 0.038096197 -0.0601966 -0.032430883
0002f0 48 0b 9b 3c 17 b3 67 3d 6a ee 7f bd 65 31 46 3a
       0.018926278 0.056567278 -0.06248323 0.0007560461
000300 22 45 83 3d d4 b1 37 3d e8 cd a6 bc 38 df 65 3b
       0.064096704 0.044847324 -0.020361856 0.0035075676
000310 fa 68 8a bc 6c 7c 19 3d aa ab 58 bd 30 e1 54 3d
       -0.01689576 0.037472174 -0.052898087 0.051972568
000320 39 73 e0 3c 62 af 4d 3b 2e b1 94 3c 30 5f 9d bc
       0.027398692 0.0031385054 0.018150892 -0.019210428
000330 32 47 06 bd ae 37 f8 bc 11 b3 60 bc 8d c1 6e 3d
       -0.03278274 -0.030299988 -0.013714568 0.058290053
000340 10 74 3f 3d 7d 93 46 bb 2e a9 ea bb 6e cd b2 3c
       0.046741545 -0.0030300312 -0.007161281 0.021826472
000350 3c be a7 3c 0e 0f 13 bd ea 6d ec bc 6e 4f e5 3c
       0.020476453 -0.03590303 -0.028861005 0.027991977
000360 5c df 0a bd cc 0d 92 3c 00 8a 17 bb 60 90 21 bb
       -0.03390442 0.017828844 -0.0023123026 -0.0024652705
000370 90 1c 00 3c 4b 03 69 3d a3 be de 3d 1c 2e 0d 3d
       0.00781931 0.056887906 0.10876205 0.0344678
000380 96 9d 2a bb cb d8 f9 bc 0f f8 86 3d a8 0d b9 3c
       -0.002603387 -0.030498883 0.06590282 0.02258952
000390 81 a9 6d 3b 38 88 ab 3c f1 6e c2 3c 46 b1 18 bd
       0.0036264362 0.020938978 0.023734542 -0.037278436
0003a0 11 f6 95 bd 4c 23 6b 3d 06 64 76 3d ba 58 3b 3d
       -0.07322324 0.05740671 0.060153984 0.045738913
0003b0 dc 6e b1 bc a1 0b 3d 3d e0 70 84 3c 90 45 f2 3c
       -0.021659307 0.04615367 0.016167104 0.029574186
0003c0 fa f9 76 3d 57 71 da 3b 7d c7 1b 3d f8 6b d9 3c
       0.06029699 0.006666343 0.038032044 0.026540741
0003d0 9c 59 cd 3c 25 bf 59 3d 8d 0c 47 bd 41 72 15 bd
       0.025067143 0.053160805 -0.048595954 -0.036485914
0003e0 9d 87 e6 bc ad 00 f4 bc 18 23 14 bd 00 40 20 3b
       -0.028140837 -0.029785478 -0.03616628 0.002445221
0003f0 ec 7d f8 3c 38 b7 27 3c 91 b7 7f bd bc c6 b4 bc
       0.030333482 0.010236554 -0.062430922 -0.02206742

bias f4 [256]
000000 19 f4 70 bc 42 f2 16 bd 08 88 33 3d 7d e2 47 bb
       -0.014706635 -0.03685213 0.0438309 -0.0030499988
000010 1a fb 21 bb 4d 33 df 3b fd 5a de 3c 81 83 13 bd
       -0.0024716319 0.0068115355 0.027142996 -0.036014084
000020 b4 aa 3e bc 8f d7 b7 3b 46 dc ec bc 65 53 dd bc
       -0.0116373785 0.0056104134 -0.028913628 -0.027017305
000030 05 73 93 ba 13 09 65 3c 8c 60 d5 3d ef 61 07 bd
       -0.0011249488 0.013979214 0.104188055 -0.03305238
000040 80 a8 71 bd 2b 73 9c bc 74 f8 88 bd c1 42 59 bd
       -0.058998585 -0.019097885 -0.06688014 -0.053042177
000050 89 70 f6 bc 00 4a fd bc b8 b5 8d 3c ed f4 17 bd
       -0.030082958 -0.030919075 0.017298564 -0.037098814
000060 a4 19 55 bd 49 1f bd 3a a0 35 b2 3c f2 a4 c7 bd
       -0.052026406 0.0014428879 0.021754086 -0.09748258
000070 c6 37 1e bd 11 1b 0c bd e8 2c d1 3d 41 f8 a6 bd
       -0.03862741 -0.0342055 0.10213643 -0.081528194
000080 a7 c9 25 3d bb a9 e0 ba be 8f ae bd 3d 24 39 bc
       0.040475514 -0.0017140427 -0.085235104 -0.011300144
000090 3b 63 57 bd 86 0c f6 3b 82 89 00 bd 95 da 93 bd
       -0.052584868 0.007508817 -0.031381138 -0.072194256
0000a0 e3 b5 59 3b 92 44 51 3d a5 22 f1 bd 34 a4 03 3d
       0.0033219985 0.051090784 -0.11774186 0.03213902
0000b0 e8 45 64 bd 52 8d 19 bb 35 e6 87 bd 9c 9e 19 3e
       -0.05573073 -0.002343018 -0.066357054 0.15001911
0000c0 ce f7 a1 bd 6e 09 71 bd f6 2c 0d 3d 5c 5e 9b 3d
       -0.07908593 -0.058846883 0.034466706 0.07586357
0000d0 33 98 c2 3d 8b fc a5 bd bd 7c 24 bd a3 3d 7a 3b
       0.09501686 -0.081048094 -0.040158022 0.003818371
0000e0 fa 62 34 3b 51 e0 af bd bf b8 94 bd ee 4d b8 3d
       0.0027524815 -0.08587707 -0.072618 0.08999239
0000f0 36 77 db bc 17 bb df 3d 70 84 ba bd 53 78 6d bd
       -0.026790243 0.109243564 -0.09107292 -0.05797608
000100 34 53 cc bd a3 8f e5 bc df 48 a2 bc 18 1c af bd
       -0.09976807 -0.028022593 -0.019810138 -0.0855028
000110 94 1e 13 3b 58 ad b6 bd df e6 6d 3d f3 74 b4 bd
       0.0022448646 -0.089197814 0.058081504 -0.08811369
000120 d6 9a f9 3a 4e a7 4d bc 13 42 9e bd d5 6a 4c bc
       0.0019043337 -0.012552096 -0.077274464 -0.012476643
000130 58 7a 3e 3c 7b 0f 5b 3d e9 61 fd bc 84 4b 3e 3d
       0.011625849 0.05348156 -0.030930476 0.046458736
000140 5b 40 86 bd c2 0c c3 3b 53 95 20 bd 15 ab 1d bd
       -0.065552436 0.0059524486 -0.039204907 -0.038493235
000150 ab 8f 7e bd ac 51 4e 3b 2e 46 3d ba 41 50 9e 3b
       -0.06214873 0.0031481786 -0.00072202354 0.0048313444
000160 51 89 19 bc 50 c9 b5 bd a1 34 bc 3d c7 35 11 3d
       -0.009371118 -0.08876288 0.09189726 0.035451677
000170 c9 6d 0f 3c 25 ff 3f bd a6 e0 ec bb ae 88 66 bd
       0.008754202 -0.046874184 -0.0072289286 -0.05628269
000180 4d 5f 64 3d a0 a6 6e bd c3 ad b8 bc 73 73 6e bd
       0.05575495 -0.058264375 -0.022543794 -0.05821557
000190 c1 6f 93 bd db bf 47 bc 49 04 7b bd ac ba 64 bc
       -0.0719905 -0.012191738 -0.061283384 -0.013960522
0001a0 6d f7 2e bb 73 71 9b bd 76 72 8c 3d 65 02 16 bd
       -0.002669777 -0.07589998 0.06857769 -0.036623377
0001b0 1f 7b ac bd d8 eb 31 bd 7a ab aa 3c 16 11 92 3c
       -0.08421921 -0.04343781 0.02083372 0.017830413
0001c0 b6 84 83 bd 24 ef 6f bd 03 c6 37 bd 36 c4 b0 3c
       -0.06421797 -0.05857767 -0.044866573 0.021577936
0001d0 c6 ae a9 bd e9 73 bf 3d 7b 13 3f 3d b8 1a 09 3c
       -0.082852885 0.0934828 0.046649437 0.008368187
0001e0 1f b0 1e 3e a0 91 dc 3a 1e 5a 90 bd 9b 69 8c 3d
       0.15496872 0.0016828068 -0.070484385 0.0685608
0001f0 7d 5b 1d 3d 94 bf 0b bd ad bb 70 bd 09 72 c7 3c
       0.03841733 -0.03411825 -0.05877273 0.024346368
000200 8c 4f ab bd 55 3f aa bd 80 ab 81 3c 8e 85 28 bc
       -0.08364782 -0.08312861 0.015828848 -0.010285748
000210 8b c4 ca bc 97 66 9f bd 25 fe 0c 3e 8d 18 65 bb
       -0.024751922 -0.07783239 0.13768823 -0.003495726
000220 28 db 8a bd 46 cb 5b 3d b3 a0 46 3a f7 5a 25 bc
       -0.06780082 0.053660654 0.00075770466 -0.0100924885
000230 3e 37 bc ba 25 16 0a bd 31 d3 18 bd 23 d9 bc 3c
       -0.0014359725 -0.033712525 -0.037310783 0.023052758
000240 87 b9 45 bd dd 1c 9a bd 62 a8 2b bc 08 d4 2c 3d
       -0.048272636 -0.075250365 -0.010477157 0.042194396
000250 f8 ff 49 bd 46 21 46 bd c1 27 ab bc e9 f3 43 bd
       -0.049316376 -0.048371576 -0.02089298 -0.047840033
000260 0e 87 a1 bd 75 28 00 3e de 3d 54 3c b3 22 44 bd
       -0.07887088 0.12515433 0.012954203 -0.047884654
000270 f1 55 2b 3d b2 31 bf bd 75 d1 3b bc 7c 4b 66 bd
       0.041830007 -0.093356505 -0.011463513 -0.05622433
000280 49 b6 2a bd b7 ac 2e bd b2 61 3c bd 17 6a 69 3d
       -0.041677747 -0.042645182 -0.045991607 0.05698594
000290 8b f1 f7 3c 40 7f 40 bd 0c 35 25 3b f9 28 6b bd
       0.030266544 -0.046996355 0.002520862 -0.05741212
0002a0 ef 4f a2 bd b8 b9 a3 bd 24 07 9f bd 6c ec 45 bd
       -0.079254024 -0.079944074 -0.07765034 -0.048321173
0002b0 c4 1b 60 bc 39 2d b9 3d d4 36 2d 3d 6f 7c ac bc
       -0.013678495 0.09041829 0.042288616 -0.021055428
0002c0 fb da 61 bd cf 1d 52 3c dc 30 7f 3c ee 00 bb bc
       -0.055140477 0.01282449 0.015575614 -0.022827592
0002d0 93 48 69 bd c4 53 83 bd 20 bd 6a bd 5f da b5 bd
       -0.056953978 -0.064124614 -0.05730927 -0.088795416
0002e0 10 44 13 bd ac 9a 72 bd a6 bc 97 3c de a2 c5 bd
       -0.03595358 -0.059229538 0.018522572 -0.09650205
0002f0 ec 7f 8e 3a 4f f8 7c bd f2 39 d1 bd ee f3 99 bd
       0.0010871864 -0.061760243 -0.1021613 -0.07517229
000300 62 e1 1a 3d df 13 f5 bc 41 2e b1 bd a8 c9 2d bc
       0.037812598 -0.029916702 -0.086514 -0.010607161
000310 e1 09 0b ba 50 03 d4 bd 86 b3 af bc fa 14 b2 bd
       -0.0005303901 -0.10352194 -0.021447908 -0.08695407
000320 f8 04 90 bd 41 04 0e bd 28 3c 95 bc 31 9e f6 bb
       -0.07032198 -0.034672026 -0.018217161 -0.007526182
000330 cf a3 46 bd d9 00 67 3b 8a 93 64 3d 11 87 de 3d
       -0.048496064 0.0035248308 0.055804767 0.108656056
000340 dd db 90 bc a2 b4 53 bc 49 99 59 3b 40 b6 e6 bc
       -0.017682964 -0.012921484 0.0033202937 -0.028163075
000350 42 f1 82 bc 33 93 2a bd 8a 04 6d bd 2d c5 1b bd
       -0.015984181 -0.041644286 -0.057865657 -0.03802984
000360 5c 86 1d bd 31 6e 84 bd 92 41 54 3c 2e 4a ee 3c
       -0.038458213 -0.0646633 0.012955086 0.029088106
000370 90 7f b2 bd 58 83 e8 bb de 90 80 bd ad 66 62 bd
       -0.08715737 -0.0070957355 -0.06277631 -0.0552737
000380 fa e7 ec 3b ac c9 e0 bc 13 d3 38 bb c5 be 95 bd
       0.007229802 -0.027439915 -0.0028201982 -0.07311777
000390 1e 2c c7 bb ac 2d 11 bd dd 99 74 bd 9b 38 3c bd
       -0.006078257 -0.035443947 -0.059717048 -0.04595242
0003a0 5c 89 cb 3c 24 77 95 bd 2e 84 04 b9 e4 82 e0 3d
       0.024845771 -0.07298115 -0.00012637742 0.109624654
0003b0 2a 0e c5 3d 02 a3 3d 3c 81 c8 b9 bc c3 70 9e bd
       0.09621842 0.011574509 -0.022678616 -0.07736351
0003c0 47 a5 e2 bd a9 17 c4 bd 56 ec ba bc a5 40 99 bd
       -0.110666804 -0.09574825 -0.022817772 -0.07483033
0003d0 3b 59 07 3b fe 73 41 3d 01 9a f8 bc d2 db cb 3c
       0.002065255 0.04722976 -0.030346872 0.024885092
0003e0 ce d6 01 bd 46 c2 21 bd 01 a1 49 3d 58 55 86 b9
       -0.031698994 -0.039491914 0.04922581 -0.00025622058
0003f0 00 55 4e 3c 1c 32 aa bd 95 70 7c bd 14 29 8a 3b
       0.012593508 -0.08310339 -0.061630804 0.0042163227

weight f4 [256, 256]
000000 d2 db f2 bb 6f e9 f2 bc cd 6d 74 3d 37 c0 b7 ba
       -0.0074114585 -0.029652325 0.059675027 -0.0014019076
000010 47 97 5c bd ac f2 f4 bb 72 cd 51 bd f9 1f ae bc
       -0.053855207 -0.007475218 -0.05122132 -0.02125548
000020 ff 75 8f bd 29 e7 13 3e e5 c7 c9 3c f2 f2 3b bd
       -0.07004928 0.1444365 0.02463145 -0.045885988
000030 1e 9b 84 bd 51 ff 79 bd 12 43 da 3d 0d 5b aa 3c
       -0.06474899 -0.061034504 0.10657324 0.02079537
000040 5a d3 61 3a 94 83 3f bc cb dc 88 ba 31 03 25 3c
       0.00086145627 -0.0116890855 -0.0010441778 0.010071562
000050 f7 37 9c 3c 59 be ec bc 31 c2 10 bc 9c b8 d7 bc
       0.019069655 -0.028899359 -0.008835361 -0.026333146
000060 85 bd 09 bd 27 d1 62 bd 4d 45 ff 3b 07 03 6b bc
       -0.033628006 -0.055375244 0.0077902437 -0.0143439835
000070 82 cf 79 bc c1 14 4a bd 85 71 08 3d cb fd 7b bd
       -0.015247228 -0.0493362 0.033311386 -0.061521333
000080 89 da 7d 3c 1e 61 da ba 43 18 6e bd 4c f5 08 3e
       0.015493997 -0.0016661023 -0.058128607 0.13374823
000090 2c 17 cf 3a 8e b6 3f bd 16 07 69 3d 85 36 2d 3d
       0.0015799752 -0.046804957 0.056891523 0.042288322
0000a0 29 19 75 ba b5 20 96 3d cc 63 0c be 82 2c 3f 3b
       -0.00093497575 0.07330457 -0.13709944 0.0029170816
0000b0 de aa fe 3c 93 e7 32 3c 0c fc 85 bc b3 8b 00 3e
       0.031087335 0.010919469 -0.016355537 0.12553291
0000c0 aa 36 51 3d 92 4c 80 3d 83 22 b2 3c c3 35 d9 bb
       0.051077522 0.06264605 0.021744972 -0.0066287233
0000d0 ec 33 b5 3d 40 c1 03 bd 14 f2 9b 3c 4f 94 7d 3d
       0.08847794 -0.03216672 0.01903633 0.061909016
0000e0 ad 98 9e bc 55 37 70 3c b5 bc 1c bd a5 d6 c8 3d
       -0.01935991 0.01466163 -0.038265903 0.09806565
0000f0 ef af 34 3b e2 02 8c 3d b3 c4 31 be 87 0d 8b 3c
       0.0027570685 0.06836487 -0.17360191 0.016974224
000100 7b b7 02 bd 1a 86 31 3c 36 fa ff bc 54 dc 47 bd
       -0.03191326 0.010835195 -0.03124724 -0.048794106
000110 12 3c b8 bc d1 e7 17 3d e3 51 52 3a 88 d3 f9 3c
       -0.022489581 0.03708631 0.00080230663 0.030496374
000120 4c 0d 30 b9 cf ca 57 3b 9b 29 20 3c 3f af aa bb
       -0.00016789621 0.003292728 0.0097755445 -0.0052088792
000130 50 da 00 bd 76 f0 96 3d 07 b6 15 3e 4e 13 28 bb
       -0.0314582 0.07370083 0.14620219 -0.0025646272
000140 04 de 53 3c 9c 41 3f bc c6 e4 20 bd 45 16 f7 bc
       0.012931351 -0.011673357 -0.039280675 -0.030161986
000150 0e 61 b3 3c 68 ec 02 bd 76 c1 b2 3d 82 2c 8d 3b
       0.021896865 -0.031963736 0.08728306 0.0043082843
000160 1a 73 1f bd aa 31 90 bc 16 78 7e 3d 35 c6 43 bc
       -0.03892813 -0.017601807 0.06212624 -0.011949112
000170 3e c6 8c 3d a8 35 9e 3d cb 05 64 bc eb 32 f9 bb
       0.06873749 0.07725078 -0.013917397 -0.007604947
000180 fa 4c 1c be ac 56 03 bc 19 7d 40 3d 16 7a 57 3b
       -0.15263739 -0.00801627 0.046994302 0.0032879165
000190 ee 39 9d 3b f2 e3 e9 bd 73 7c b0 3c a0 07 ef 3d
       0.0047981655 -0.1142043 0.021543717 0.11671376
0001a0 74 bc 63 3d 36 cd 6c bd 37 16 bd 3d 65 13 54 bd
       0.055599645 -0.057812892 0.09232753 -0.05177631
0001b0 be 61 24 3c 9a 32 46 bd a6 34 c1 bc 8a b8 09 3c
       0.010033069 -0.0483881 -0.023584675 0.008405814
0001c0 8d 8a 63 3d 1c 0f 00 3e a8 a6 c3 3c ae 8e 51 3d
       0.055552054 0.12505764 0.023883179 0.05116146
0001d0 95 6a 9b bd c8 70 35 bd 1a e8 9e 3d 86 2d 4f 3c
       -0.07588688 -0.04429701 0.077591136 0.012645131
0001e0 aa a1 23 3d c3 92 cd 3c 73 e9 80 bc ae 29 5a 3d
       0.039949097 0.025094396 -0.015736317 0.053262405
0001f0 ec 34 f8 3c ce f7 43 3c 26 7a bf bc bd 8d 08 bd
       0.030298673 0.011960937 -0.023373675 -0.033338297
000200 b5 6d 3f 3c 62 2c 2f bc f6 30 95 3c c4 26 f7 bc
       0.011683871 -0.010691734 0.018211823 -0.030169852
000210 7d 42 a5 3b fd df 2e bd 13 fa 0c 3d 83 1b ca bc
       0.0050433264 -0.04269408 0.034418177 -0.024671322
000220 0e a8 09 bd d2 5e 41 bc 27 3f 66 bd df 47 07 3d
       -0.033607535 -0.011802392 -0.05621257 0.033027526
000230 51 71 2f bd f8 54 bd bd 22 b5 41 3b 91 f0 dc 3d
       -0.042832676 -0.09244722 0.0029557426 0.10788072
000240 33 31 12 bd 74 99 63 bd 64 aa 61 bc 51 e2 73 3b
       -0.03569145 -0.055566266 -0.013773534 0.0037213753
000250 44 33 5f 3d 35 0c 15 bd 40 47 d3 3c f4 05 78 3c
       0.05449225 -0.036388595 0.02579081 0.015138138
000260 ed 72 b7 bc 32 1d 10 bc 01 c4 19 bb 69 99 f4 3c
       -0.022393668 -0.008796023 -0.0023462775 0.029858308
000270 80 5e 83 3d dd 49 0e bc 2d 74 1f bd 85 bd 4f bd
       0.06414509 -0.008684603 -0.038929153 -0.05071785
000280 7d 5d 71 bd 19 58 8e bc da ea 40 3d ee 67 4a 3b
       -0.058927048 -0.017375993 0.047098972 0.00308847
000290 a9 94 6c bc 75 09 96 bc 94 9e b1 bc da 52 10 bd
       -0.01443974 -0.018315056 -0.021682061 -0.035235263
0002a0 69 b3 a8 3d 5b 8e 41 3d 29 3f 89 bd 7d bd 9e 3c
       0.08237345 0.0472549 -0.067015 0.019377464
0002b0 00 c8 16 bd db b4 96 3d 22 87 ac bc 43 ed 62 3d
       -0.03681183 0.07358714 -0.02106053 0.05540205
0002c0 23 9f 99 bd cb 6b 43 bd 86 b3 1a 3e a1 c3 4c bc
       -0.07501056 -0.04771022 0.15107545 -0.012497813
0002d0 95 39 12 bd 2a 10 30 bd b2 ea 35 3d 13 49 cb bb
       -0.035699446 -0.042984165 0.044413276 -0.0062037795
0002e0 82 83 76 3d d3 b5 d9 bd d6 16 66 3d 83 84 0f 3d
       0.06018401 -0.10630383 0.05617412 0.035038482
0002f0 df 78 e8 bc 28 bd 81 bd 6f 98 3c 3c 79 ee ba bd
       -0.028377948 -0.06334907 0.011510952 -0.09127516
000300 f5 c1 30 3d bd a1 f0 bc bf 50 34 bb ce 1a 14 3d
       0.04315372 -0.029373998 -0.0027513949 0.036158375
000310 47 63 8d bb 30 4b 4f bd 3e 57 1d bd 52 73 a0 bc
       -0.0043148133 -0.050608814 -0.03841328 -0.019586239
000320 4d 2d 58 3c 15 f7 0c 3d ac 6d 84 bc 6a 05 42 3d
       0.013194394 0.034415323 -0.016165577 0.047368445
000330 cb 57 46 3d 6c 7c bb 3b 93 cd 78 3c a8 7a ea 3a
       0.04842357 0.0057216194 0.015185731 0.0017889338
000340 61 7f c8 bb 72 46 6e bd 92 6c 38 bc d2 f2 21 3d
       -0.0061187004 -0.05817265 -0.011256354 0.039538212
000350 ba f5 39 3d e4 fb e1 b9 00 f2 40 3d 56 24 b3 3c
       0.04540036 -0.00043103017 0.04710579 0.021867912
000360 64 67 3d be 92 03 57 3d b5 31 23 bd 11 1c ab 3c
       -0.18496472 0.05249364 -0.039842326 0.020887407
000370 19 9a 7f bb fc 08 3b 3d d6 50 a2 bc f4 8c af 3c
       -0.0039001761 0.045662865 -0.019813936 0.021429516
000380 42 3c 0c 3d dd 60 14 3d 63 f9 96 3d 6d 70 2b bc
       0.034237154 0.03622519 0.073717855 -0.010463816
000390 6c 28 d7 3c ab 62 8d 3d d4 97 3c 3d 89 3d d8 3c
       0.026264392 0.06903585 0.046043232 0.02639653
0003a0 69 73 38 bd 29 de 57 3d 90 34 46 3d a5 a0 dd 3d
       -0.04503194 0.052702103 0.04838997 0.10821656
0003b0 67 61 69 3d ae e3 bc 3c 70 ec 4c bd 34 b8 83 bc
       0.056977656 0.023057785 -0.050030172 -0.016079046
0003c0 6c f6 7e 3d 7e 8d ba 3c c4 ab 9a bc e0 40 1e bd
       0.062246725 0.022772547 -0.018880732 -0.03863609
0003d0 61 91 a6 3c 1a a6 8f 3d 99 6d 6a bb 33 8a f1 3c
       0.020332994 0.07014103 -0.0035770892 0.029484844
0003e0 f3 ea 32 3d 55 aa cd bc b1 97 a9 3d d2 cc d9 bc
       0.043681096 -0.025105635 0.08280886 -0.026586924
0003f0 45 17 89 3c aa 44 f1 3b 68 95 a9 3d b7 10 8c 3d
       0.016734729 0.0073629217 0.0828045 0.068391256

bias f4 [256]
000000 a7 4c 40 3d a6 f2 9b 3b 87 fa 0d 3b 15 00 12 3c
       0.0469481 0.0047591506 0.0021664219 0.008911152
000010 6d a7 a0 bd e0 d9 89 bd d8 12 a7 3d 9d 53 07 bd
       -0.07844434 -0.067310095 0.08157891 -0.033038724
000020 1f 72 2a 3c 14 59 15 3d d9 b8 e2 3d 6d e4 88 3d
       0.010403185 0.036461905 0.11070413 0.06684194
000030 bf 19 6e 3c 87 23 52 3d b2 d2 f8 bc da ee 95 3d
       0.014532506 0.051303413 -0.030373905 0.07320948
000040 29 28 5f 3b 41 48 e9 bc 4e f2 9f bc 45 b0 9d 3d
       0.0034051037 -0.028476836 -0.01952472 0.07699636
000050 23 1c b7 bd 0d 38 6a bd 06 c2 2a bd ed b1 63 bd
       -0.089409135 -0.05718236 -0.04168894 -0.055589605
000060 14 46 1f bd ac da ac 3c 93 58 7b 3d 61 ec 5b 3d
       -0.03888519 0.021100365 0.061363768 0.053692225
000070 de cc 5b bc 3e aa 73 bc 0a cc ef b9 fb cd 0c bd
       -0.013415543 -0.014872132 -0.00045737653 -0.034376126
000080 e8 a8 ec bc d2 bb 3c 3c b4 0a 9c bd 8e fe 34 bd
       -0.028889135 0.011519389 -0.07619229 -0.044188075
000090 30 ac 08 bd bb 62 87 bd fa 3b 00 bd 81 9b 9b 3d
       -0.033367336 -0.06610628 -0.031307198 0.075980194
0000a0 d9 09 05 bd 4a 3d 44 bd d8 1e ff bc 01 6c 4b bd
       -0.032480095 -0.047910012 -0.031142637 -0.049663547
0000b0 cf 9f 8d bc b2 fd ff ba 68 d7 d9 bc 52 0b f0 3c
       -0.017288117 -0.0019530563 -0.026591972 0.029302273
0000c0 ae 3c 22 bd 33 c2 35 3c c6 a2 ba bb a3 ff af 3d
       -0.03960865 0.011093664 -0.0056956736 0.08593681
0000d0 c7 25 88 bd 11 dd 28 bd 14 2f 86 bd 2f 5e a3 bd
       -0.066478305 -0.04122645 -0.06551948 -0.079769485
0000e0 3c b5 34 bb fc fd af 3d 41 b8 38 3d 1b 95 bd 3d
       -0.0027573844 0.085933656 0.045097593 0.09256955
0000f0 4f b9 92 3d 47 5f c7 bb cb 96 5f bd 02 fa 90 3c
       0.07164251 -0.006084356 -0.054587167 0.017697338
000100 65 59 9b 3c 2b c4 4c bd db ab 33 3d 4d ae c0 bb
       0.018963525 -0.049991768 0.043865066 -0.0058801533
000110 2b c7 c5 3d 29 5f 48 bd 91 41 b7 3b db 53 00 3d
       0.09657129 -0.048918877 0.005592533 0.03132997
000120 22 d8 22 bc 7a 5a ad 3d 4d 35 0d be 50 01 d5 bc
       -0.009939225 0.08464523 -0.13789864 -0.026001602
000130 0d 04 e0 bc dc 2a be 3d 2b 87 c0 bc 2f 72 58 bd
       -0.027345682 0.092855185 -0.023501953 -0.05284327
000140 f4 9e 4c bb 65 f4 83 bd 52 f2 4c bd 3c 58 12 3d
       -0.0031222673 -0.06443099 -0.050035782 0.035728678
000150 8a 66 36 3c b7 1c 86 3d 45 0b de ba 70 37 13 bd
       0.011132846 0.06548446 -0.0016940614 -0.03594154
000160 32 7d 0a 3c 58 67 a3 bc d0 f5 3c 3d 35 6a 2c bd
       0.0084527 -0.01994674 0.046132863 -0.042093474
000170 a0 50 ac 3c db 5d 97 3c ea 9e ba 3d ba 4f 96 3d
       0.021034539 0.018477371 0.09112342 0.073394254
000180 89 4e 91 bd 52 78 a8 3c 0b 72 e3 3c 84 87 1b 3d
       -0.070950575 0.020565186 0.02776434 0.037971035
000190 f7 ad 77 3c e1 50 83 bd b0 a6 bd bc b5 f5 5a bd
       0.01511716 -0.06411911 -0.023150772 -0.05345698
0001a0 fa ef 1a bd cf 4f b8 bd f4 16 06 3a 88 6b 60 bc
       -0.037826516 -0.08999597 0.00051151146 -0.013697512
0001b0 f6 60 ed bb 66 52 8a bd 34 97 b7 bd 1d cd b7 bc
       -0.0072442247 -0.067539975 -0.089643866 -0.022436673
0001c0 5f 0c b5 bd 94 5a 20 3d 65 07 ba bd 8d 5e 8f bc
       -0.0884025 0.039148882 -0.09083442 -0.01750114
0001d0 72 e1 f1 3a 66 7b f4 bc 3e e7 d4 bc a6 03 25 3c
       0.0018454029 -0.029843997 -0.025989171 0.010071671
0001e0 99 fc df 3d ed 86 20 3b ff 49 90 bb 24 2d 94 bb
       0.10936851 0.0024494485 -0.0044033523 -0.0045219827
0001f0 30 c7 72 bc 48 7e 94 bd 22 63 02 bd 26 e2 09 bd
       -0.014817998 -0.07250649 -0.03183282 -0.033662938
000200 64 71 20 3c fc c1 40 3d a8 07 38 bd 14 e6 92 3d
       0.009792659 0.047059998 -0.044929177 0.0717279
000210 37 17 87 bd 87 2a 0a bd f6 e8 86 3d 7a c1 47 bd
       -0.06596225 -0.033731963 0.065874025 -0.048768498
000220 a0 9b 9d 3d 1e 49 43 bd a6 e3 8d 3d a6 3b 81 3d
       0.07695699 -0.04767715 0.06928186 0.06310205
000230 76 2e c9 3c b4 18 4a 3b 6d e8 50 3c 5a 88 6b 3d
       0.024558287 0.0030837478 0.012750727 0.05750308
000240 34 cd 09 bc 18 18 59 bd f0 a9 07 3c 9b 60 74 bc
       -0.008410741 -0.053001493 0.008280262 -0.014915611
000250 54 a6 c8 3d 7d 0e 53 3c 66 11 3d bc 65 8e 6f bc
       0.097973496 0.012881872 -0.011539793 -0.014621352
000260 22 b9 da 3d 4a 3c 92 bd 2e ab a9 bd 95 eb 84 bc
       0.106798425 -0.071404055 -0.08284603 -0.016225616
000270 32 2f 97 3d 55 c0 aa bc bb 9f b6 3d 12 58 2f 3b
       0.07382049 -0.020843664 0.08917185 0.0026755375
000280 32 72 f6 b9 d9 72 d8 bc e0 2a cb bb ea 2a 99 bd
       -0.00047005859 -0.026421951 -0.0062001795 -0.07478888
000290 c8 8f 81 3d 3e 0a c8 3c bc 27 74 bc f9 b6 91 3d
       0.06326252 0.024418946 -0.014902052 0.071149774
0002a0 fd d8 a4 3d 80 fe 80 3d be 5e 51 3d 40 0f 5d bb
       0.080492 0.06298542 0.051115744 -0.0033731014
0002b0 50 d2 9b 3d c8 69 76 bb 77 d6 da b8 85 f1 2b bd
       0.07608473 -0.0037599672 -0.00010434997 -0.041978378
0002c0 d2 ac 10 bb a2 2a a9 3d fd 8e ec bc ad f9 ba bc
       -0.0022075665 0.08260085 -0.028876776 -0.022824133
0002d0 61 dd 9f 3d 07 5c 63 3d 16 11 1f bd f3 c6 81 3d
       0.078058966 0.055507686 -0.038834654 0.06336775
0002e0 e0 63 0a bd 10 b8 00 3d f2 41 e8 3b eb 6f 76 3c
       -0.033786654 0.031425536 0.0070879394 0.015041332
0002f0 8f ec f0 ba 4c a0 36 bd ed 48 b3 bc 48 15 7a bd
       -0.0018381047 -0.044586465 -0.02188536 -0.06105545
000300 5c e5 74 bd f0 20 5a 3d 3a 1b 83 3d 60 de d8 3d
       -0.059789047 0.053254068 0.064016774 0.1058929
000310 25 44 6c bd d1 e0 16 bd 5f 55 2a 3d ec 3e 2c bb
       -0.057682175 -0.036835495 0.041585322 -0.0026282622
000320 87 c4 12 bd b4 d2 8b bd 69 09 35 bd 21 c0 43 bd
       -0.035831954 -0.06827298 -0.044198427 -0.04779065
000330 9e 19 01 bb d3 a4 8f bd b6 1e 1f bd 0d e8 65 bc
       -0.0019699107 -0.070138596 -0.038847648 -0.014032376
000340 ad ee 46 bd 0b 27 c3 3b 85 fb f7 3c 14 10 1c bd
       -0.048567463 0.005955582 0.030271301 -0.03810127
000350 16 f9 19 bd ad 5e c9 3d c8 3b 1d bd 25 b7 a6 3c
       -0.037591062 0.09832511 -0.03838709 0.020351002
000360 d0 09 be 3d 34 01 fc bb a9 47 1b bd ed ac 94 bd
       0.09279215 -0.007690573 -0.037910137 -0.072595455
000370 69 c3 ac bd ff 42 ac 3c 49 30 0e bd ea 38 96 3b
       -0.08435709 0.02102804 -0.034714017 0.0045844214
000380 1c 42 8a 3c 67 cd 08 3d dd e7 ac bc 5a 56 5b bd
       0.016877227 0.033399012 -0.021106655 -0.05354915
000390 c9 fd b7 bc e7 0e 8a bd ac ac ff bc 03 67 93 bc
       -0.022459881 -0.06741124 -0.031210266 -0.017993456
0003a0 7a e1 b7 bd 65 3b 32 bc fc 77 0e 3e 92 3f 17 bd
       -0.08978553 -0.010878419 0.13912958 -0.03692586
0003b0 a2 6f 2f 3d 53 71 7e 3c 5d 38 07 3d 4d e5 87 3d
       0.04283107 0.015529948 0.033012737 0.066355325
0003c0 27 84 3c 3c 48 9e 30 3d 62 12 3f 3c 17 fa 8a b9
       0.011506117 0.0431197 0.011662098 -0.00026507743
0003d0 00 68 20 bc b1 16 c3 bc 1d 84 31 bd 31 6a d9 bc
       -0.0097904205 -0.023814531 -0.043338884 -0.026539894
0003e0 2f 0a cf 3d 41 d4 a3 bc 8d 19 60 bd 13 67 23 3d
       0.10109364 -0.019998671 -0.054711867 0.03989322
0003f0 97 c1 fc 3c 19 e7 4e bd f0 8b 7b bd 57 e5 80 3d
       0.03085403 -0.05051336 -0.06141275 0.06293743

weight f4 [1, 256]
000000 73 d4 cb bd e8 ad 3c bd 27 8e 84 3c 3a 36 96 bd
       -0.09952631 -0.046064287 0.016181065 -0.07334562
000010 7e f3 c6 bc 45 06 ce bb 8e 07 79 bd df 07 34 3e
       -0.024286028 -0.0062873685 -0.06079822 0.17581128
000020 69 94 2c 3c 1f 6c 2c bd f0 24 0e 3e 8a 1c 93 bd
       0.010533431 -0.0420953 0.13881278 -0.07183178
000030 e1 00 79 3d 94 21 c5 bd dc 76 89 bc a4 83 b0 bd
       0.060791854 -0.09625545 -0.01678031 -0.086188585
000040 de 72 b8 bb 13 06 0f 3d c2 47 5d 3c 9a 1a a0 3d
       -0.0056289276 0.034917902 0.013505878 0.07817574
000050 61 91 ba bd 47 8e a4 39 7c d2 01 bd 2f 28 a3 bb
       -0.0910976 0.00031386522 -0.031694874 -0.0049791555
000060 51 26 86 3c aa 49 e3 bc a8 d9 90 bd 61 4a 81 bd
       0.016375693 -0.027745087 -0.07072765 -0.06313015
000070 48 78 af bd 58 0f 3f b9 75 98 b0 3c e0 fb 12 3d
       -0.08567864 -0.00018220895 0.021557072 0.035884738
000080 aa 32 21 3d 62 ad 13 3d cd d7 18 bd f9 40 17 3d
       0.039354958 0.036054023 -0.03731518 0.036927197
000090 e0 69 89 3b f9 59 a5 3c c7 35 3a 3c f5 02 73 bd
       0.0041935295 0.020184504 0.011365361 -0.059328992
0000a0 07 ab 7f bc 84 98 64 3c 80 79 66 3d c7 eb 90 3c
       -0.015604741 0.013952378 0.056268215 0.017690552
0000b0 41 6d 39 3e 15 33 d1 ba 38 e1 a9 bc a7 7b b4 3b
       0.18108083 -0.0015960658 -0.020737275 0.0055079046
0000c0 46 3e a4 3c f3 1f f4 3a d6 e6 98 3e ed f1 5e bd
       0.020049226 0.0018625244 0.29863614 -0.054429937
0000d0 e6 f4 10 bd ca 61 95 bb 99 b6 9c bc 70 6a ba 3c
       -0.035389803 -0.0045587765 -0.019130038 0.022755831
0000e0 8b 7c 10 ba b4 f1 39 bd 57 da ad bd 0a b8 c4 bd
       -0.00055117224 -0.04539652 -0.08488911 -0.09605415
0000f0 07 60 88 bd f5 e0 be 3d 0b 2a 04 bd 79 42 82 bd
       -0.06658941 0.09320251 -0.032266658 -0.06360335
000100 39 40 48 3b eb 86 8c 3c d3 71 93 bd 15 56 e8 3c
       0.0030555858 0.017154178 -0.071994446 0.02836136
000110 88 3c cc bd 08 3e 4a bb af a1 4f 3c 0b bf 77 bd
       -0.09972483 -0.0030859727 0.012672826 -0.060484927
000120 8b 8c 80 bb cb 0b 3a 3e 65 cd d0 3d c2 63 1f 3c
       -0.003923004 0.18168561 0.10195426 0.009728374
000130 2d 82 6c bc d2 a1 9a bd b9 4c 50 bb 1c 2e 0b bd
       -0.014435333 -0.07550396 -0.0031784012 -0.03397952
000140 6b 3c 87 bc 5a 5a 95 bc ad 09 12 3d fd bd a3 3c
       -0.016508302 -0.01823156 0.03565376 0.019988054
000150 36 8a 77 ba 13 80 f0 bd d4 ba d5 bc 83 6f 11 bc
       -0.0009442897 -0.11743178 -0.026090063 -0.008876684
000160 39 86 9f 3b bc 1e c6 ba a4 8f d5 bd 07 8d c6 bc
       0.0048682955 -0.0015115361 -0.10427788 -0.024237169
000170 33 dc 03 bd 53 1b 00 bb 7c 34 a7 bd e3 b3 8e bd
       -0.03219242 -0.0019547537 -0.081643075 -0.069679044
000180 7e 01 23 3c d9 77 e3 3c 01 4d b6 3d be a1 01 3d
       0.009949086 0.027767109 0.08901406 0.03164839
000190 91 0c 2e 3c 60 e0 a3 bb ae 3e 75 bc 24 9c 00 bc
       0.010623113 -0.005001113 -0.014968557 -0.007849727
0001a0 f5 0a 27 bb 1c 5e a0 b8 04 be 9a ba 48 f9 ee bb
       -0.0025488709 -7.646924e-05 -0.0011805897 -0.0072929002
0001b0 cf c2 b9 3d 83 09 da 3a 09 d9 f9 bb f5 25 89 3d
       0.0907036 0.0016634915 -0.0076247496 0.06696693
0001c0 aa d2 13 3d 7b 96 d3 bd d2 15 36 3b 04 9d 45 3d
       0.036089577 -0.10331436 0.0027784002 0.048245445
0001d0 05 ba 2e 3b 95 ab 79 3c db 6e 53 bb 29 89 cc 3b
       0.002666117 0.015238662 -0.003226212 0.0062419367
0001e0 64 23 a7 bd 0e 20 78 b9 1a fd 89 bc 1d 99 78 38
       -0.08161047 -0.00023663064 -0.016844321 5.9270405e-05
0001f0 f2 05 38 3c 18 64 b2 3b 0e 31 9e 3b 41 d6 57 3d
       0.011231886 0.005444061 0.004827625 0.052694563
000200 7f 49 b1 bd 0c 45 64 bd a6 2b f9 bb 79 27 8f bd
       -0.086565964 -0.05572991 -0.0076040803 -0.06989951
000210 9e 32 de bc b2 0b 07 ba 6d c7 80 3d 5c b1 bf 3b
       -0.027123746 -0.0005151584 0.062880374 0.0058500003
000220 f4 a8 a5 bd b7 cf c0 ba 8e de 7f bd cc 7c af bd
       -0.08088866 -0.0014710341 -0.062468104 -0.08568725
000230 ab a4 d1 bc f4 9e 5c bb eb 61 99 bb de 2b c9 bd
       -0.025591215 -0.003366408 -0.004680862 -0.0982282
000240 cd 58 f9 ba 44 2f 57 bb 60 37 83 bb bf aa 4a 3d
       -0.0019023657 -0.003283457 -0.004004404 0.049479242
000250 a6 ab a8 bd aa 27 62 3c ba 41 a8 3a 1d e5 31 3c
       -0.08235864 0.013803402 0.0012836971 0.0108578475
000260 04 ab d2 bd 51 a9 0d bc 0e 8c 4e 3c 39 55 62 bd
       -0.10286525 -0.008646325 0.012606634 -0.055257056
000270 df 05 97 bd e4 ff 59 3c 80 91 98 3d cf c2 4e 3c
       -0.07374167 0.013305638 0.07449627 0.012619688
000280 ed 84 29 3c 8d 52 5a 3d 62 d0 13 bc 96 32 2e bd
       0.010346633 0.053301383 -0.00902185 -0.04252871
000290 6a 4f 6d bd 74 0b b0 bd 88 a6 13 3c 2e 6b 9f bd
       -0.057937063 -0.085959345 0.009011872 -0.07784115
0002a0 a9 1d a3 bd f4 2a 48 bd 58 33 a5 bd 17 53 6f 3a
       -0.079646416 -0.04886909 -0.08066434 0.0009129508
0002b0 5f 36 86 bd 8b 25 84 39 ce 62 47 3d a6 91 37 bd
       -0.06553339 0.00025204974 0.048678212 -0.044816636
0002c0 a9 b9 5b bb ad 13 58 3d e3 b4 ad 3b 2b 36 86 3c
       -0.003352741 0.05275314 0.0053011044 0.016383251
0002d0 1f ad d0 bd f1 08 99 bd 5d 87 31 3c 70 2c 82 bd
       -0.1018927 -0.074724086 0.010835496 -0.06356132
0002e0 fe fa 59 3d 16 8c 98 3d 14 93 b8 3d db c2 2a bb
       0.05321788 0.07448594 0.09012428 -0.0026056084
0002f0 32 17 21 3d 9d f9 d7 3c 97 4c 51 bb ed c9 0c bc
       0.03932876 0.026364142 -0.003193652 -0.008593065
000300 90 9d 74 bc 2f ad a9 bd b0 27 96 bd 16 d8 a2 bd
       -0.014930144 -0.08284985 -0.073317885 -0.07951371
000310 d5 aa 90 3c 66 a4 23 3c b3 1c a0 bd 5d 2a 65 3d
       0.017659584 0.009987926 -0.07817974 0.055948604
000320 04 7e 9c bc fa 9f 5f ba 5e 9e 4c 3d 0c f1 d5 3b
       -0.019103058 -0.0008530613 0.04995572 0.006528979
000330 65 75 84 3c fc a5 1b 3d de dd 29 3d 56 27 b2 bc
       0.01616926 0.038000092 0.041471355 -0.021747272
000340 66 34 f0 bc 9a 89 ba 3b 5f 95 3d 3d a7 af 1d bc
       -0.02932186 0.005692673 0.04628503 -0.009624398
000350 4a 0b 87 3c 57 b6 50 bd 4c eb 6b bc 3b 04 8b bd
       0.016484875 -0.050955143 -0.014399361 -0.06787916
000360 0b 99 c4 bd 81 85 a0 3b 82 13 22 3b da c5 df 3c
       -0.09599503 0.0048987274 0.0024730866 0.027316023
000370 84 f6 e1 bc 8a 5c 94 bd c6 7e 0b 3b 92 f5 4d bd
       -0.027583368 -0.07244213 0.002128528 -0.050283022
000380 42 41 60 bd 42 c8 e1 3c 04 0d 1c 3c a4 11 fb 3c
       -0.054749735 0.02756131 0.009524588 0.03064806
000390 ca a2 a3 bb 29 9e 68 bb 16 7d 84 bc dd 8c 08 3c
       -0.004993771 -0.0035494661 -0.016172927 0.008334366
0003a0 33 57 4d 3c ff 4d 0a 3c 0e 51 26 3e 9d 7a 27 3b
       0.012532997 0.008441447 0.16241857 0.002555526
0003b0 71 e7 52 bd 13 7d ca bc d9 45 83 bc 95 81 b5 bd
       -0.05149025 -0.024717843 -0.016024517 -0.088626064
0003c0 c2 72 8f b7 d2 66 8d ba 6a e1 8f 3d d7 09 a5 bd
       -1.7100367e-05 -0.0010788089 0.07025416 -0.080585174
0003d0 aa f3 65 3e c6 e5 3d b9 f1 19 cb 39 e0 87 24 3d
       0.22456232 -0.00018110042 0.00038738505 0.040168643
0003e0 55 8d 1c 3e 22 e8 31 ba a7 ec 05 bd 00 67 ac bd
       0.15288289 -0.00067866046 -0.032696392 -0.08418083
0003f0 6e 25 8d 3d 83 97 27 3d e2 14 35 3c 8c be b9 bd
       0.06891905 0.040915977 0.011052342 -0.09069547
